…
Average actions of items: 73.6004447739066
The number of inters: 99287
The sparsity of the dataset: 92.20911801632141%
Remain Fields: ['user_id', 'item_id', 'timestamp']
Mon 29 Sep 2025 16:42:42 INFO  [Training]: train_batch_size = [128] train_neg_sample_args: [{'distribution': 'none', 'sample_num': 'none', 'alpha': 'none', 'dynamic': False, 'candidate_num': 0}]
Mon 29 Sep 2025 16:42:42 INFO  [Evaluation]: eval_batch_size = [128] eval_args: [{'split': {'LS': 'valid_and_test'}, 'order': 'TO', 'group_by': 'user', 'mode': {'valid': 'full', 'test': 'full'}}]
Mon 29 Sep 2025 16:42:45 INFO  MultiModalMoERec(
  (item_embedding): Embedding(1350, 128, padding_idx=0)
  (image_projection): Linear(in_features=1024, out_features=256, bias=True)
  (text_projection): Linear(in_features=1024, out_features=256, bias=True)
  (id_mamba): MambaLayer(
    (mamba_layers): ModuleList(
      (0-1): 2 x Mamba(
        (in_proj): Linear(in_features=128, out_features=512, bias=False)
        (conv1d): Conv1d(256, 256, kernel_size=(4,), stride=(1,), padding=(3,), groups=256)
        (act): SiLU()
        (x_proj): Linear(in_features=256, out_features=40, bias=False)
        (dt_proj): Linear(in_features=8, out_features=256, bias=True)
        (out_proj): Linear(in_features=256, out_features=128, bias=False)
      )
    )
    (norms): ModuleList(
      (0-1): 2 x LayerNorm((128,), eps=1e-05, elementwise_affine=True)
    )
    (dropout): Dropout(p=0.2, inplace=False)
    (layer_scales): ParameterList(
        (0): Parameter containing: [torch.float32 of size 1x1x128 (cuda:0)]
        (1): Parameter containing: [torch.float32 of size 1x1x128 (cuda:0)]
    )
  )
  (fusion_mamba): MambaLayer(
    (mamba_layers): ModuleList(
      (0-1): 2 x Mamba(
        (in_proj): Linear(in_features=128, out_features=512, bias=False)
        (conv1d): Conv1d(256, 256, kernel_size=(4,), stride=(1,), padding=(3,), groups=256)
        (act): SiLU()
        (x_proj): Linear(in_features=256, out_features=40, bias=False)
        (dt_proj): Linear(in_features=8, out_features=256, bias=True)
        (out_proj): Linear(in_features=256, out_features=128, bias=False)
      )
    )
    (norms): ModuleList(
      (0-1): 2 x LayerNorm((128,), eps=1e-05, elementwise_affine=True)
    )
    (dropout): Dropout(p=0.2, inplace=False)
    (layer_scales): ParameterList(
        (0): Parameter containing: [torch.float32 of size 1x1x128 (cuda:0)]
        (1): Parameter containing: [torch.float32 of size 1x1x128 (cuda:0)]
    )
  )
  (cross_attention): MultiHeadCrossAttention(
    (layer_norm): LayerNorm((256,), eps=1e-05, elementwise_affine=True)
    (image_projection): Sequential(
      (0): Linear(in_features=256, out_features=256, bias=True)
      (1): LayerNorm((256,), eps=1e-05, elementwise_affine=True)
      (2): Dropout(p=0.2, inplace=False)
    )
    (text_projection): Sequential(
      (0): Linear(in_features=256, out_features=256, bias=True)
      (1): LayerNorm((256,), eps=1e-05, elementwise_affine=True)
      (2): Dropout(p=0.2, inplace=False)
    )
    (image_to_text_heads): ModuleList(
      (0-7): 8 x MultiheadAttention(
        (out_proj): NonDynamicallyQuantizableLinear(in_features=32, out_features=32, bias=True)
      )
    )
    (text_to_image_heads): ModuleList(
      (0-7): 8 x MultiheadAttention(
        (out_proj): NonDynamicallyQuantizableLinear(in_features=32, out_features=32, bias=True)
      )
    )
    (head_norms): ModuleList(
      (0-7): 8 x LayerNorm((64,), eps=1e-05, elementwise_affine=True)
    )
  )
  (router): ExpertRouter(
    (router): Sequential(
      (0): LayerNorm((64,), eps=1e-05, elementwise_affine=True)
      (1): Linear(in_features=64, out_features=256, bias=True)
      (2): GELU(approximate='none')
      (3): Dropout(p=0.1, inplace=False)
      (4): LayerNorm((256,), eps=1e-05, elementwise_affine=True)
      (5): Linear(in_features=256, out_features=4, bias=True)
    )
  )
  (stein_mveb): MultiViewEntropyBottleneck(
    (image_encoder): Sequential(
      (0): Linear(in_features=256, out_features=256, bias=True)
      (1): LayerNorm((256,), eps=1e-05, elementwise_affine=True)
      (2): Dropout(p=0.1, inplace=False)
      (3): GELU(approximate='none')
      (4): Linear(in_features=256, out_features=512, bias=True)
    )
    (text_encoder): Sequential(
      (0): Linear(in_features=256, out_features=256, bias=True)
      (1): LayerNorm((256,), eps=1e-05, elementwise_affine=True)
      (2): Dropout(p=0.1, inplace=False)
      (3): GELU(approximate='none')
      (4): Linear(in_features=256, out_features=512, bias=True)
    )
    (image_score): Sequential(
      (0): Linear(in_features=256, out_features=512, bias=True)
      (1): LayerNorm((512,), eps=1e-05, elementwise_affine=True)
      (2): Dropout(p=0.1, inplace=False)
      (3): GELU(approximate='none')
      (4): Linear(in_features=512, out_features=256, bias=True)
    )
    (text_score): Sequential(
      (0): Linear(in_features=256, out_features=512, bias=True)
      (1): LayerNorm((512,), eps=1e-05, elementwise_affine=True)
      (2): Dropout(p=0.1, inplace=False)
      (3): GELU(approximate='none')
      (4): Linear(in_features=512, out_features=256, bias=True)
    )
    (stein_kernel): SteinKernel()
  )
  (experts): ModuleList(
    (0-3): 4 x Sequential(
      (0): Linear(in_features=64, out_features=128, bias=True)
      (1): ReLU()
      (2): Dropout(p=0.2, inplace=False)
    )
  )
  (feature_fusion): Sequential(
    (0): Linear(in_features=1024, out_features=128, bias=True)
    (1): ReLU()
    (2): LayerNorm((128,), eps=1e-05, elementwise_affine=True)
    (3): Dropout(p=0.1, inplace=False)
  )
  (final_fusion): Sequential(
    (0): Linear(in_features=256, out_features=128, bias=True)
    (1): LayerNorm((128,), eps=1e-05, elementwise_affine=True)
    (2): ReLU()
    (3): Dropout(p=0.2, inplace=False)
  )
  (final_norm): LayerNorm((128,), eps=1e-05, elementwise_affine=True)
  (loss_fct): CrossEntropyLoss()
)
Trainable parameters: 2506884
